PART3/navie_dqn.pt (torch_old, 4741 bytes, 4 tensors)

qnet.layers.0.weight f4 [128, 4]
-0.2527395 -0.10067792 -0.6664792 -0.14273265 0.006368484 1.1984031 1.458821 1.2056913
-0.7989586 0.15624465 0.54469675 -0.16937639 -0.04457258 -0.30555925 -1.800957 -0.5510087
-0.63286 -0.22097306 0.11781862 -0.38638055 -0.71657485 -0.3355946 0.6342415 0.5289895
-0.2915787 0.104855455 0.4662572 0.004894766 -0.77267593 0.1242717 0.3976101 -0.43083593
0.48953128 -0.37138242 0.4895122 -0.15557504 -0.3548921 0.19540672 0.5659798 -0.32747495
-0.25849912 0.022270529 -0.12181242 -0.18362989 -0.6685643 0.4294492 -0.41947076 0.011751638
-0.8861344 0.24342157 0.27555767 -0.1510555 -1.1326516 -0.49108672 0.4443959 0.11180745
-0.21301766 0.7974579 1.711433 1.1339576 -0.04112545 -0.23065652 -0.13572161 -0.042071324
-0.16431916 -0.3491405 0.36135724 -0.26125148 0.50416243 -0.48462686 -1.2442055 -0.7739158
0.087477624 0.7153516 1.7290717 1.0624701 -0.25385645 0.18020484 -0.38647887 0.34629467
-0.6451416 0.1571639 -0.048179682 0.14021114 -0.45624208 0.0079707485 0.40236536 -0.12257114
-0.50100243 0.22681494 -0.12583345 -0.12319892 -0.25099382 -0.011871996 -0.11766778 -0.0860477
-0.6249639 -0.20600486 -0.104591966 -0.4923158 -0.4666218 0.032272708 0.488386 -0.17274043
-0.15707105 -0.30798888 0.33868453 0.2081611 -0.24717231 0.14629363 -0.09295048 -0.40518427
-0.240706 -0.14769004 -0.21676236 0.1002947 0.05789069 -0.17909485 0.18627891 -0.017097766
-0.35343203 0.076026686 0.002473339 -0.25115794 0.37576166 0.9803442 1.2587386 1.1094977
0.63896316 -1.0383054 -1.9850638 -2.0151563 0.35570654 0.8737288 1.1626408 1.2992967
-0.58214957 -0.19586013 0.022537464 0.3529626 -0.3759114 -0.31100503 -0.057840344 -0.36117342
-0.5047195 0.16396962 0.12695287 -0.1506218 -0.7835684 -0.17197032 -0.026605004 0.097357005
-0.5820883 -0.39984968 0.4693542 0.26983678 -0.13666202 -0.10798095 -0.08004626 0.18770126
-0.60843843 0.40468833 0.016819948 0.2849188 -0.22079793 0.06730857 -0.42134953 0.12729962
-0.68359876 0.33381405 -0.42332485 -0.16058512 -0.049567576 -0.22798437 -0.621205 0.12823835
-0.28179267 0.06459145 0.19266166 0.16585821 -0.6583167 0.31662378 0.029850146 -0.16049449
0.02122085 1.0706156 1.0960777 1.0741725 -0.06944041 -0.13853343 -0.010040951 0.24366018
-0.78533876 0.41053557 -0.36330682 -0.23822191 -0.51291907 -0.3291803 -0.42659622 0.24825694
0.39942923 0.9343095 1.6920949 0.8975979 -0.6939978 0.3394033 0.21286924 -0.24511522
0.25976828 1.0470967 1.4150738 1.1997696 1.0720949 -0.61332875 -0.98404723 -1.3860158
0.13817145 -0.17451937 -0.33948827 -0.0015293483 -0.6615357 0.30565208 -0.13869008 -0.14089432
-0.32424593 0.022958178 0.21983834 0.1881603 0.5463866 -0.66717076 -1.5452747 -1.1070169
-0.5949515 -0.28924865 -0.44094625 0.20557018 -0.6136993 0.3193349 0.20744823 0.23701788
0.9757201 -0.5089915 -1.3273339 -1.0698435 -0.68212694 0.43697092 -0.048021793 -0.19608404
1.1545162 0.39998642 -1.0703665 -0.44756392 0.30457854 -0.9590187 -1.4183929 -1.3538078
00000000: 1267 81be 3a30 cebd 619e 2abf 8228 12be
00000010: b7ae d03b 4665 993f a6ba ba3f 1854 9a3f
00000020: 8d88 4cbf 99fe 1f3e 3f71 0b3f 0171 2dbe
00000030: bd91 36bd 4372 9cbe c285 e6bf e80e 0dbf
00000040: 1d03 22bf c346 62be e34a f13d acd3 c5be
00000050: 7371 37bf 0ed3 abbe a75d 223f db6b 073f
00000060: ce49 95be 75be d63d 44b9 ee3e 4664 a03b
00000070: 17ce 45bf 2982 fe3d 8d93 cb3e 8796 dcbe
00000080: d8a3 fa3e d625 bebe 58a1 fa3e 104f 1fbe
00000090: 6bb4 b5be b318 483e 0de4 103f ccaa a7be
000000a0: ff59 84be af70 b63c ca78 f9bd 7909 3cbe
000000b0: 0827 2bbf c4e0 db3e dfc4 d6be f189 403c
000000c0: b4d9 62bf 8143 793e e515 8d3e 4bae 1abe
000000d0: bafa 90bf b86f fbbe dc87 e33e 4efb e43d
000000e0: 4d21 5abe 3326 4c3f 3d10 db3f 8625 913f
000000f0: 2973 28bd 3931 6cbe 9bfa 0abe fb52 2cbd
00000100: 4843 28be 8bc2 b2be d103 b93e c1c2 85be
00000110: ca10 013f 0321 f8be 2042 9fbf 591f 46bf
00000120: 7827 b33d 4821 373f 3952 dd3f 05ff 873f
00000130: 79f9 81be 9e87 383e 8fe0 c5be 894d b13e
00000140: 0028 25bf 93ef 203e 0f58 45bd 8293 0f3e
00000150: 9098 e9be be97 023c d502 ce3e 9406 fbbd
00000160: b241 00bf 2d42 683e 7cda 00be b74f fcbd
00000170: 4382 80be c382 42bc cefb f0bd c739 b0bd
00000180: a2fd 1fbf f0f2 52be 5034 d6bd d110 fcbe
00000190: 0de9 eebe 6330 043d bb0d fa3e dee2 30be
000001a0: 3cd7 20be b8b0 9dbe 0f68 ad3e 2f28 553e
000001b0: bd1a 7dbe ffcd 153e d25c bebd 5074 cfbe
000001c0: a27b 76be 0f3c 17be f4f6 5dbe 4f67 cd3d
000001d0: ca1e 6d3d a464 37be e6bf 3e3e 9d10 8cbc
000001e0: 0bf5 b4be e1b3 9b3d be17 223b c697 80be
000001f0: d563 c03e d6f7 7a3f 591e a13f 0504 8e3f
00000200: 1793 233f 31e7 84bf 9216 febf 52f8 00c0
00000210: 2b1f b63e b1ac 5f3f 6ad1 943f 5b4f a63f
00000220: c107 15bf 8f8f 48be 7da0 b83c 84b7 b43e
00000230: 7677 c0be 0d3c 9fbe ffe9 6cbd b9eb b8be
00000240: 4c35 01bf a7e7 273e efff 013e 9a3c 1abe
00000250: f097 48bf fd18 30be bdf2 d9bc 1c63 c73d
00000260: bd03 15bf 19b9 ccbe 324f f03e 0c28 8a3e
00000270: 21f1 0bbe 1e25 ddbd 4bef a3bd c234 403e
00000280: 9fc2 1bbf 4f33 cf3e fdc9 893c e1e0 913e
00000290: da18 62be 13d9 893d 20bb d7be d55a 023e
000002a0: 5400 2fbf ade9 aa3e 09be d8be 6d70 24be
000002b0: 5f07 4bbd bc74 69be 4a07 1fbf ea50 033e
000002c0: 2147 90be 8648 843d 1949 453e bcd6 293e
000002d0: 7187 28bf 831c a23e 4b88 f43c ab58 24be
000002e0: 59d7 ad3c ef09 893f 464c 8c3f 7c7e 893f
000002f0: c636 8ebd b5db 0dbe cd82 24bc 0e82 793e
00000300: f60b 49bf b831 d23e 5a03 babe 72f0 73be
00000310: aa4e 03bf 528a a8be d26a dabe 1137 7e3e
00000320: fd81 cc3e e82e 6f3f 9196 d83f fac8 653f
00000330: d7a9 31bf 45c6 ad3e 65fa 593e 7cff 7abe
00000340: 5900 853e 4407 863f 2321 b53f 0d92 993f
00000350: 683a 893f 1d03 1dbf 85ea 7bbf f768 b1bf
00000360: d17c 0d3e 35b5 32be 68d1 adbe 6a74 c8ba
00000370: 675a 29bf 6e7e 9c3e c604 0ebe 9a46 10be
00000380: 9003 a6be ca12 bc3c 4d1d 613e 18ad 403e
00000390: fedf 0b3f b4cb 2abf 90cb c5bf bbb2 8dbf
000003a0: be4e 18bf 6618 94be b5c3 e1be fd80 523e
000003b0: 661b 1dbf dd7f a33e 4f6d 543e d1b4 723e
000003c0: cbc8 793f 444d 02bf 14e6 a9bf a2f0 88bf
000003d0: df9f 2ebf a7ba df3e 80b2 44bd 41ca 48be
000003e0: 30c7 933f 05cb cc3e c501 89bf 1927 e5be
000003f0: b8f1 9b3e 4082 75bf e68d b5bf 9349 adbf

qnet.layers.0.bias f4 [128]
0.73775494 0.05460637 1.1765754 -0.46036053 0.91122264 -0.4422877 -0.53342485 0.8634274
-0.4978354 1.2729132 1.3055897 1.2639697 0.9268522 -0.4265972 0.0112379845 0.9273593
1.236792 -0.58508724 -0.044612795 1.4727397 0.97418416 0.87315714 1.040994 0.96291524
1.1661024 0.884126 1.1830648 1.2840382 1.3060362 1.3163553 0.97400266 0.0070826914
-0.08719236 -0.041593485 1.3956025 0.86916393 1.3988906 1.3362268 -0.44009158 1.3659118
1.3643988 1.2441523 1.0163639 0.8746689 1.241693 1.1476753 0.05534006 1.4409478
1.2601663 1.0784993 0.087281756 1.4627646 -0.012726059 -0.6039634 -0.35941538 1.0315775
1.2067621 -0.7483442 0.89832217 1.2934415 -0.58561057 1.2773342 0.064744465 -0.5465267
0.058742844 1.0711563 -0.8197188 0.9857924 -0.5447944 -0.62958795 1.206925 1.5053488
-0.75340396 1.3628008 1.2294351 1.3875815 1.2587823 0.9216242 1.4061117 0.97920674
0.937937 1.3808844 1.1010545 -0.32194525 -0.84061736 1.1804776 1.1207831 1.3666219
1.0127627 -0.0067707933 1.2776072 0.86564916 1.4669274 -0.58256716 1.3038834 1.1208538
1.2781403 0.9611563 1.3774874 0.98010343 0.016251143 0.06924133 -0.052236952 0.099065214
-0.047343418 1.0515958 0.009578439 1.4719608 1.1448029 1.1629752 -0.52664346 0.86067814
1.2317326 1.5202209 1.086156 1.0173026 0.06034805 1.3228941 1.0049164 -0.69857776
-0.43291792 1.0833074 1.1155494 1.2037206 -0.5902613 1.3704275 1.039629 -0.4826247
00000000: 82dd 3c3f eeaa 5f3d 069a 963f 60b4 ebbe
00000010: e345 693f 8973 e2be 888e 08bf 9409 5d3f
00000020: 48e4 febe d2ee a23f 901d a73f c2c9 a13f
00000030: 3046 6d3f f36a dabe 861f 383c 6b67 6d3f
00000040: 334f 9e3f 47c8 15bf e8bb 36bd bc82 bc3f
00000050: 2264 793f 3a87 5f3f 4b3f 853f 9d81 763f
00000060: d842 953f 1556 623f ab6e 973f 5d5b a43f
00000070: 322c a73f 557e a83f 3d58 793f ec15 e83b
00000080: e891 b2bd ee5d 2abd 1aa3 b23f 8781 5e3f
00000090: d90e b33f 7b09 ab3f af53 e1be 33d6 ae3f
000000a0: 9fa4 ae3f 6240 9f3f 3618 823f 4dea 5f3f
000000b0: ccef 9e3f 06e7 923f 42ac 623d fa70 b83f
000000c0: 214d a13f 440c 8a3f c7c0 b23d df3b bb3f
000000d0: f680 50bc 589d 1abf 4b05 b8be bb0a 843f
000000e0: 2e77 9a3f 7c93 3fbf 71f8 653f 7e8f a53f
000000f0: 93ea 15bf b07f a33f bf98 843d 2ce9 0bbf
00000100: 569c 703d a61b 893f 17d9 51bf e45c 7c3f
00000110: a577 0bbf ad2c 21bf 857c 9a3f 45af c03f
00000120: 15df 40bf 4270 ae3f 215e 9d3f 459c b13f
00000130: c71f a13f 90ef 6b3f 78fb b33f 4bad 7a3f
00000140: a41c 703f d2c0 b03f 5bef 8c3f 02d6 a4be
00000150: b332 57bf e419 973f d275 8f3f 77ed ae3f
00000160: 35a2 813f 88dd ddbb a288 a33f 2f9b 5d3f
00000170: 47c4 bb3f 1f23 15bf a7e5 a63f 2378 8f3f
00000180: 1a9a a33f 570e 763f 8251 b03f 0fe8 7a3f
00000190: 1e21 853c 66ce 8d3d 6af6 55bd b4e2 ca3d
000001a0: 2ceb 41bd b19a 863f e3ee 1c3c 3669 bc3f
000001b0: e788 923f 5fdc 943f 1bd2 06bf 6755 5c3f
000001c0: 6aa9 9d3f 9996 c23f 2907 8b3f f936 823f
000001d0: 842f 773d 9854 a93f 1aa1 803f fed5 32bf
000001e0: 6ba7 ddbe d1a9 8a3f 53ca 8e3f 8413 9a3f
000001f0: 5d1b 17bf 2b6a af3f 9012 853f 961a f7be

qnet.layers.2.weight f4 [2, 128]
1.3860343 -1.3789868 0.5709593 -0.8156385 0.62340117 -0.5074462 0.014263359 0.5950961
-0.059435442 0.6845104 0.5474663 0.68321294 0.7385964 -0.4582509 -1.106711 1.0126773
0.806155 -0.73617876 -0.9599586 1.053673 1.1198261 1.0736753 0.65298873 1.0365127
0.6723307 0.96556723 0.71293914 0.7303237 0.8116538 1.024342 0.982145 -1.1415721
0.67673093 -1.1482339 0.6087332 0.8101767 0.7342706 0.7617243 -0.26211414 0.8393786
0.97417736 1.1096212 0.72482896 0.78543496 1.3239522 0.7471828 -1.2621005 0.91666603
0.67279714 0.53591365 -1.2152766 0.6046571 -1.1896414 -0.22557773 -0.011661344 0.5129519
0.8625242 -0.8493735 0.48414147 1.484323 -0.62049663 0.6999749 -0.79988444 -0.55963993
-1.1149992 0.8064988 -0.39424866 0.42672327 -0.48259762 -0.77934676 0.7505039 0.5960477
-0.6114145 0.7010604 0.6176626 0.72402686 1.3533003 0.9838408 0.47999436 0.5811779
0.894478 0.8266315 0.6439637 -0.022048041 -0.15459834 0.69645476 0.73424554 0.5785978
0.46931893 -1.2300893 0.69911957 0.49279177 0.7526185 -0.48751947 0.8155645 0.9203718
0.6779337 0.43833405 0.80830175 0.9669235 -1.2948645 -0.9773078 -0.6026339 -0.82315683
-1.0683371 0.4716532 -1.278163 0.7045499 1.1478431 1.0871422 -0.589192 0.92930794
0.9536004 0.7648384 0.6603374 0.8948894 -0.80737484 0.9602963 0.6641781 -0.56055987
-0.6678266 0.77193993 1.0465711 0.6433542 -0.5209469 0.750424 0.79173917 -0.39518195
0.9795987 -0.93693584 0.8713683 -1.3152878 1.0558413 -0.83739793 0.050713506 0.84275323
-0.011090346 0.72454184 0.7883248 0.7017071 0.7927476 -0.832018 -1.1288195 0.8042872
0.87229186 -1.1282573 -0.98145926 0.82898366 0.9576269 0.9601102 0.70120096 0.8982833
1.0214362 0.91114974 0.8137596 0.7426995 0.7860971 0.80761003 0.82504296 -0.9588708
-0.89499646 -1.0107667 0.8059379 1.1099415 0.72112745 0.89119935 -0.40647185 0.85824174
0.8265092 0.78088325 0.7009769 0.63208574 1.007379 0.83523744 -0.9173739 0.8304251
0.72945786 0.7780457 -0.7934978 0.7844029 -1.0064571 -1.227796 0.0006212512 0.6682193
0.7118932 -1.3158655 0.78638375 1.060046 -1.44387 0.74990046 -1.7138196 -1.4214425
-1.0066915 0.9805804 -0.6639103 0.6461144 -1.4217768 -1.3756591 0.805579 0.799604
-1.3164167 1.0414917 0.8160796 0.8858547 1.027368 0.75355506 0.83229303 0.7159801
0.9044791 0.84034634 0.68376356 -0.06709887 -0.4273642 0.7583227 1.1971595 0.7857321
0.8598478 -1.0120443 0.7437009 1.0229409 0.77859163 -0.89449215 0.7964036 0.9141772
0.7348425 0.82465225 0.8686171 0.8247434 -1.045769 -0.73889995 -0.9147114 -1.3441767
-1.0406877 0.80034685 -1.0342185 0.8441047 0.80458903 0.82887745 -1.5107704 0.98938906
0.7839511 0.7305967 0.9797792 0.7380228 -0.49660006 0.6385429 1.135386 -0.4615037
-1.3303257 0.8993871 0.792743 0.7632732 -1.4293605 0.85758585 0.79555595 -1.302797
00000000: 9269 b13f a482 b0bf 642a 123f afcd 50bf
00000010: 3897 1f3f ffe7 01bf ddb0 693c 3858 183f
00000020: 9472 73bd 133c 2f3f c026 0c3f 0be7 2e3f
00000030: a714 3d3f dd9f eabe b5a8 8dbf 699f 813f
00000040: 2d60 4e3f 3676 3cbf d9bf 75bf c2de 863f
00000050: 7656 8f3f 316e 893f 452a 273f 73ac 843f
00000060: dd1d 2c3f 6a2f 773f 2e83 363f 7ef6 3a3f
00000070: 8bc8 4f3f a31d 833f db6d 7b3f 091f 92bf
00000080: 3d3e 2d3f 54f9 92bf f0d5 1b3f bd67 4f3f
00000090: 28f9 3b3f 5d00 433f d333 86be 84e1 563f
000000a0: b063 793f 1108 8e3f 648e 393f 4412 493f
000000b0: 4477 a93f 5f47 3f3f 828c a1bf a0aa 6a3f
000000c0: 6f3c 2c3f a331 093f 2f8e 9bbf cfca 1a3f
000000d0: 2b46 98bf d9fd 66be 390f 3fbc d150 033f
000000e0: 63ce 5c3f 8b70 59bf 64e1 f73e 4cfe bd3f
000000f0: ded8 1ebf 8e31 333f 3ac5 4cbf 9044 0fbf
00000100: 4bb8 8ebf b576 4e3f f6da c9be 797b da3e
00000110: 0917 f7be 4583 47bf 0621 403f 9596 183f
00000120: a985 1cbf b278 333f 231f 1e3f d359 393f
00000130: f238 ad3f fedc 7b3f d2c1 f53e 13c8 143f
00000140: 83fc 643f 1f9e 533f ceda 243f 189e b4bc
00000150: 074f 1ebe dc4a 323f 84f7 3b3f fc1e 143f
00000160: 924a f03e 9173 9dbf 80f9 323f 344f fc3e
00000170: 9bab 403f 279c f9be d6c8 503f 7c9d 6b3f
00000180: 108d 2d3f 526d e03e ddec 4e3f 4c88 773f
00000190: 1fbe a5bf d830 7abf 3746 1abf 68ba 52bf
000001a0: 45bf 88bf 877c f13e d89a a3bf 625d 343f
000001b0: 86ec 923f 7a27 8b3f 49d5 16bf 20e7 6d3f
000001c0: 281f 743f 73cc 433f df0b 293f 7917 653f
000001d0: 1eb0 4ebf fad5 753f 9307 2a3f da80 0fbf
000001e0: aff6 2abf db9d 453f 0bf6 853f dcb2 243f
000001f0: c75c 05bf ca1b 403f 6baf 4a3f 4a55 cabe
00000200: fbc6 7a3f 07db 6fbf fe11 5f3f 5a5b a8bf
00000210: cf25 873f b65f 56bf f7b8 4f3d adbe 573f
00000220: 48b4 35bc 937b 393f a7cf 493f 14a3 333f
00000230: 82f1 4a3f 22ff 54bf 287d 90bf c4e5 4d3f
00000240: 854e 5f3f bc6a 90bf ea40 7bbf 4638 543f
00000250: 0927 753f c8c9 753f e881 333f e5f5 653f
00000260: 6cbe 823f 1c41 693f 8d52 503f 8e21 3e3f
00000270: a93d 493f 88bf 4e3f 0436 533f 8f78 75bf
00000280: 7d1e 65bf ce60 81bf f251 4e3f 9012 8e3f
00000290: cf9b 383f a425 643f 141d d0be bbb5 5b3f
000002a0: 1b96 533f f7e7 473f 3973 333f 5fd0 213f
000002b0: ccf1 803f 1fd2 553f 04d9 6abf bd96 543f
000002c0: c0bd 3a3f 012e 473f ac22 4bbf a1ce 483f
000002d0: 96d3 80bf 6b28 9dbf 76db 223a 6c10 2b3f
000002e0: a23e 363f 486e a8bf 7250 493f 96af 873f
000002f0: bbd0 b8bf 7af9 3f3f 715e dbbf d4f1 b5bf
00000300: 44db 80bf 5107 7b3f 07f6 29bf c167 253f
00000310: c8fc b5bf 9915 b0bf 6d3a 4e3f d9b2 4c3f
00000320: 5880 a8bf 9a4f 853f 98ea 503f 60c7 623f
00000330: cb80 833f fce8 403f 2811 553f 794a 373f
00000340: f18b 673f f020 573f 210b 2f3f 226b 89bd
00000350: 7bcf dabe 7021 423f 863c 993f bd25 493f
00000360: fc1e 5c3f ab8a 81bf 2f63 3e3f baef 823f
00000370: c851 473f 70fd 64bf 1be1 4b3f 8407 6a3f
00000380: a31e 3c3f 691c 533f b15d 5e3f 6222 533f
00000390: c2db 85bf 8c28 3dbf 872a 6abf fb0d acbf
000003a0: 4135 85bf 88e3 4c3f 4661 84bf 3f17 583f
000003b0: 8cf9 4d3f 5031 543f ed60 c1bf 9a48 7d3f
000003c0: 05b1 483f 6308 3b3f cfd2 7a3f 10ef 3c3f
000003d0: 5d42 febe 8c77 233f 5454 913f 374a ecbe
000003e0: 1d48 aabf 3c3e 663f 35f1 4a3f df65 433f
000003f0: 49f5 b6bf bf8a 5b3f 8ea9 4b3f 0dc2 a6bf

qnet.layers.2.bias f4 [2]
0.6991756 0.6193139
00000000: 2cfd 323f 5b8b 1e3f
